long_term_memory/data.pth (torch, 235775 bytes, 6 tensors)

l1.weight f4 [96, 377]
000000 21 09 6b 3d ee 8a 88 3e 14 85 90 be e3 23 bf 3d
       0.057381753 0.26668495 -0.2822653 0.09333017
000010 a9 19 ea bd 0c bd c0 3e 10 e0 72 bd d8 7f 30 3d
       -0.114306755 0.3764423 -0.059295714 0.04309067
000020 1f 0d 35 bf b3 cf 87 3e 02 1a 4a be 20 d5 1e be
       -0.70723146 0.2652565 -0.19736484 -0.15510988
000030 57 fd 01 3f 55 68 9f 3e 54 34 75 3e f5 51 fc 3e
       0.5077719 0.31134287 0.23945743 0.49281278
000040 5b d2 15 3e 67 f2 76 3e ef ce 40 be 9f ce 06 3f
       0.14631025 0.24115907 -0.18828939 0.5265903
000050 42 4d 65 3e b1 95 00 bf dc 9d 48 3f 17 a5 0d 3f
       0.22392753 -0.5022841 0.78365874 0.5533003
000060 55 ef 42 3e 69 53 d5 be 32 78 0e 3f 28 5b 9a bd
       0.1903661 -0.416652 0.55652153 -0.07536918
000070 ff a1 18 3e 03 74 03 3d ee 02 7f bd 07 d5 39 be
       0.14905547 0.03209306 -0.062258653 -0.1814767
000080 97 63 c3 3d dc 1a 00 3e 2a 55 2b 3e 0b e9 b7 3e
       0.0954048 0.12510246 0.16731706 0.35919985
000090 d9 69 d6 bd a4 24 93 3c 3e d9 5b 3d 17 81 e4 bd
       -0.104694076 0.017961808 0.053673975 -0.111574344
0000a0 29 96 93 3e 2a 2e 48 3e 7f 9a 05 3e 2e ff 85 bc
       0.288255 0.1954886 0.13047217 -0.01635703
0000b0 3f b8 28 3d a3 14 55 3e 54 b3 0e bf d1 6e 30 bc
       0.041191336 0.20808654 -0.55742383 -0.010768608
0000c0 98 9c c0 3e 2a fa 12 3e 84 cd a7 3d 30 67 41 bd
       0.37619472 0.14353243 0.08193496 -0.047217548
0000d0 80 96 4d 3f 2b 31 b0 3e 97 01 84 bd 18 91 97 be
       0.8030777 0.34412512 -0.06445616 -0.29602885
0000e0 6b a1 d0 bd 51 f9 1b be 40 af de bd 10 93 7b be
       -0.10187038 -0.15231825 -0.1087327 -0.24567819
0000f0 4c 12 55 3e 94 a0 3f 3f 08 8d 43 3e 6c c4 a4 be
       0.20807761 0.748544 0.19096768 -0.32181108
000100 92 16 15 3f 8e 00 2e be 5f 59 90 bd 88 fb e7 be
       0.58237565 -0.16992399 -0.07048296 -0.4530909
000110 bb 4a 44 bd 0c ac b4 be 0f 2c 1c be 2f 15 02 be
       -0.04792283 -0.3528751 -0.15251182 -0.12703393
000120 26 a1 bd bd 14 44 3d 3d ee 30 cf bd 9f 61 0b be
       -0.09259252 0.046207502 -0.101167545 -0.13611458
000130 2a eb f6 bc 41 21 0f be 45 c8 96 3e a6 22 b2 3d
       -0.030141432 -0.13977529 0.2944967 0.08698015
000140 51 41 20 3d c1 9d 5b 3d 0b 7d cb bb 46 90 96 3e
       0.03912479 0.053617243 -0.0062099746 0.29406947
000150 e4 ec 75 bd bc b9 bd 3e fd e7 07 3f 92 15 7a 3f
       -0.06004037 0.37055767 0.5308836 0.97689164
000160 26 9c 74 3f eb 6f 89 3f 63 bc 00 3e b2 5e 09 3f
       0.95550764 1.073728 0.12571864 0.5366012
000170 7a 2f 10 3a c0 ac 83 3e b9 01 ac be 9b 71 2c bf
       0.00055002386 0.25717735 -0.33595064 -0.6736085
000180 70 18 8b be 32 1c bc 3e 20 76 06 be 13 63 aa be
       -0.27167082 0.3674026 -0.13130999 -0.33278713
000190 cd 3f ba bd 9a bc 5e be cf e0 83 bd 16 aa 5b 3f
       -0.090942 -0.21751633 -0.06439363 0.85806406
0001a0 a3 93 88 3e 18 b4 09 bf a5 0b ad bd 5f ee 87 3e
       0.26675138 -0.53790426 -0.08449487 0.2654905
0001b0 e0 b9 ff 3e 0b dd 9a 3e d9 53 0e 3f 5a b0 89 3e
       0.499465 0.30246767 0.5559669 0.26892358
0001c0 66 a2 15 be a1 e1 c8 3e 30 cc af 3e 76 58 8a 3e
       -0.14612731 0.3923464 0.3433547 0.27020615
0001d0 1b 00 66 3e 42 0c a3 be f3 a8 31 3e 1d b3 51 3d
       0.22460978 -0.3184529 0.17349605 0.051196206
0001e0 7d d4 13 bd 39 88 88 bd e3 76 5d be bf dd 1e bd
       -0.036091316 -0.066666074 -0.21627383 -0.038785692
0001f0 08 d7 36 be 1b 7a 74 be 63 51 a8 bd 79 70 90 3e
       -0.17855465 -0.23874705 -0.08218648 0.2821081
000200 71 8f 98 3e 11 e8 18 3f a1 3e 49 3e 3f a1 03 3e
       0.29796937 0.59729105 0.19652797 0.12854479
000210 8a fc 9b 3e bb a5 8f 3e e8 c8 c0 3e 42 1f 82 be
       0.3046611 0.2805613 0.3765328 -0.25414473
000220 82 9a 0f be 51 ce df bd 76 13 88 3d 9f 0f a4 3d
       -0.14023784 -0.109280236 0.06644337 0.08010792
000230 4e 19 91 3d 2f 65 66 be cb a1 36 be 6d 5c 90 3e
       0.070849046 -0.22499536 -0.17835157 0.28195515
000240 10 78 67 3e 7c ee 40 3f b4 e3 bc 3d d2 1b 8d 3d
       0.22604394 0.753639 0.092231184 0.06890072
000250 8c 9e e1 be e3 6d a3 be 9d 20 89 3e 11 4c 45 3e
       -0.44066274 -0.31919774 0.26782694 0.19267298
000260 d1 e5 8a 3d 7b 50 c1 3d 85 cd a5 3e 15 83 95 3d
       0.06782115 0.094391786 0.3238336 0.073003925
000270 74 13 fe 3e b8 76 b0 3e 0c 33 cd bd 71 e9 71 3e
       0.49624217 0.34465575 -0.10019502 0.23624207
000280 08 78 7a 3d 45 98 cb 3d c3 03 32 be 42 b9 84 3e
       0.061149627 0.099411525 -0.17384247 0.2592259
000290 4c ba 0b be aa ac 81 bd 0c b0 a6 3d 4f 97 3f bd
       -0.13645285 -0.06331761 0.08139047 -0.04677516
0002a0 01 b6 12 be 89 18 d1 bc 9f 8c c4 3e 77 09 23 3e
       -0.14327241 -0.025524395 0.38388535 0.1592158
0002b0 d5 6f 4f 3e 4d d0 b5 3e 9f 54 1f be a1 68 9c 3e
       0.20257504 0.35510483 -0.15559624 0.30548576
0002c0 df e0 89 3e 2c 1c a1 3e ac eb 1c 3d 3a 44 71 bc
       0.26929376 0.31466806 0.03831069 -0.014725739
0002d0 a3 87 81 3c 7d ce 11 3f 71 d0 e7 3e 98 0e a4 3e
       0.015811747 0.569557 0.45276216 0.32042384
0002e0 bc 70 ae bd 66 d2 95 3e 77 87 5f bc 3c 08 3b be
       -0.08517596 0.29262084 -0.013643137 -0.1826486
0002f0 34 bb 12 bd 56 fe 38 be ca 64 7f be 86 05 bb bc
       -0.035823062 -0.18065771 -0.24940792 -0.022829782
000300 ad 2e 1c 3d 49 72 c7 bd a7 45 52 3f dd be 9c 3e
       0.03813045 -0.09738595 0.8213753 0.30614367
000310 be ee ef 3d 38 48 2c 3e 4b 32 49 3f 5a aa 88 3e
       0.11715458 0.16824424 0.78592366 0.26692468
000320 d7 af 81 3e 65 c4 7d 3f f2 bc 89 3f 6a 53 ca 3e
       0.25329468 0.991278 1.0760787 0.39516765
000330 15 c4 51 3f 9f a6 9a 3d 58 0b 13 3d cd c5 e6 3d
       0.8193982 0.07551312 0.03589949 0.11268196
000340 ec 08 d1 3c 41 93 9a be 9b 20 57 3c 06 ec 0f be
       0.02551695 -0.3019047 0.013130332 -0.1405488
000350 0d 06 13 3f 51 ac f7 3e fe 89 15 bf 9d 5e 48 be
       0.5743111 0.48373654 -0.58413684 -0.19567342
000360 2b b1 0e be a4 06 ec be af a3 29 3f 55 8e d7 be
       -0.13934772 -0.46098816 0.66265386 -0.42100778
000370 a1 c2 9e 3b 22 b7 bb 3e 24 76 08 3f 94 8d 6f be
       0.004844979 0.36663157 0.5330527 -0.23393852
000380 95 c0 c5 3e d4 95 c1 be 4a 44 6f 3f 71 47 19 3e
       0.3862349 -0.37809622 0.93463576 0.14968659
000390 43 92 d8 3e 64 06 d5 bd 60 8c b3 be 25 b0 94 be
       0.4229909 -0.104016095 -0.35068035 -0.29040638
0003a0 d1 d3 48 be 07 6d 16 3f d2 5a 25 3f a5 8b 81 be
       -0.19612052 0.5876011 0.64591706 -0.25301853
0003b0 78 42 7d 3d fc f8 fc 3d 1b ec 37 be 64 57 8b 3e
       0.061830968 0.123521775 -0.17961161 0.2721511
0003c0 a1 de c3 3e 1c b1 5a be e8 97 a1 be 2f 7d 14 40
       0.3825579 -0.21356624 -0.31561208 2.3201406
0003d0 83 c1 c0 3c 12 47 9c bc f8 e9 0f be 15 5e 1c be
       0.023529774 -0.019076858 -0.14054096 -0.15270264
0003e0 00 52 00 bd f5 ab d4 3e 32 65 ab 3d 1b 67 a9 be
       -0.0313282 0.41537443 0.08368911 -0.33086476
0003f0 48 fe 81 bc 93 4d 8a bd 73 14 30 3f 67 42 56 bd
       -0.015868321 -0.06753077 0.68781203 -0.05230942

l1.bias f4 [96]
000000 da 26 01 3e 03 e0 8f 3e 8b e5 16 3f 63 ba 96 3e
       0.12612477 0.28100595 0.58944005 0.29439077
000010 52 36 47 3f 4f a8 6c bf da 43 28 bd 97 09 ab be
       0.7781726 -0.9244432 -0.041080333 -0.33405754
000020 6b 3b a9 3e 5a dc b3 bd da f5 e4 3e d0 ba 28 be
       0.33053145 -0.08782263 0.4471882 -0.16477513
000030 37 80 de 3c de e0 05 3f a8 e9 4a bf 28 3d a7 3d
       0.027160747 0.52296245 -0.7926278 0.081659615
000040 de 15 cb be ae 32 24 be f5 a7 69 bf 04 92 67 3e
       -0.3966512 -0.16034958 -0.9127191 0.22614294
000050 7f 1f 20 3f de ca a4 bd 5f 75 10 be 4c 0e 17 3e
       0.6254806 -0.08046506 -0.14107274 0.14751548
000060 f1 81 fc bd 6c 3d b2 be 40 18 3a bf 13 ef 50 be
       -0.12329472 -0.34812486 -0.7269325 -0.204037
000070 0d f5 c0 bd 50 10 27 3e 6b c1 21 3d 6b 35 fd 3e
       -0.0942174 0.16314816 0.0394911 0.49454817
000080 a0 38 b6 3d ad 78 e2 3e 86 31 b6 3e 47 2d 0e bf
       0.08897519 0.44232693 0.35584658 -0.5553784
000090 71 f9 79 be 06 f5 44 3e 5a 37 2e bb 7b e3 8c 3e
       -0.2441156 0.19234094 -0.0026583285 0.27517304
0000a0 56 d6 d8 3e fb 62 a5 3e a7 da 06 bf 56 1e 04 3e
       0.42351025 0.3230208 -0.52677387 0.12902197
0000b0 fa 5a 2e 3f 1f 61 4c 3f bc 93 db 3e fb 7d e5 bd
       0.6810757 0.79835695 0.4288615 -0.112056695
0000c0 98 41 88 3e 8e e7 8e be 6e ce 32 3e 48 de 36 3e
       0.26612544 -0.27911037 0.17461559 0.17858231
0000d0 4d 65 17 bc 9c 07 10 bf 18 46 51 bf 77 c6 60 3e
       -0.009240461 -0.5626161 -0.8174758 0.21950708
0000e0 0c 78 25 bd 13 1f c4 3e 94 a0 eb bd a2 5f 66 3e
       -0.04039769 0.38304958 -0.11505237 0.22497419
0000f0 96 54 b2 3e 0b 91 8d 3e f9 86 f3 3e 03 6f 18 bf
       0.3483016 0.27649722 0.47563913 -0.5954439
000100 87 49 d0 be 31 6a 20 3f 8d 66 9d 3c c5 7f f8 3d
       -0.40681097 0.62662035 0.01921394 0.12133745
000110 37 28 1b 3f 6c 5c 2d 3e 29 a3 a6 3e 97 96 5d be
       0.6060824 0.16929787 0.32546356 -0.21639477
000120 36 20 9b be 6d d7 bf 3e db 87 1b bf aa f5 21 3e
       -0.30298012 0.37469044 -0.60754174 0.1581637
000130 0a 4d 1d bf 60 30 a5 3e 86 c1 0c 3f ad 98 b6 3e
       -0.6144568 0.3226347 0.54982793 0.35663357
000140 ba 73 63 be 4e 10 01 3e 2f b7 54 3f f0 48 7c 3e
       -0.22212115 0.12603876 0.83092016 0.24637198
000150 25 da 87 be fb 78 70 3e e6 a1 8b bd 0a 86 9c be
       -0.2653362 0.2348365 -0.06817989 -0.30571014
000160 ec a3 0d bf 05 c4 2d be f9 77 82 3c 18 99 15 3e
       -0.5532825 -0.16969307 0.015926348 0.14609182
000170 40 0d 9d be a9 47 e1 be a3 42 c5 be fc a7 9d 3e
       -0.3067417 -0.43999985 -0.38527402 0.30792224

l2.weight f4 [96, 96]
000000 af 98 40 3f 98 7d 8d 3e 7c 6f 68 3e 8e b2 af bd
       0.75232977 0.27634883 0.22698778 -0.085789785
000010 92 ef 25 3f 18 15 a7 3e 3e a4 2c be ef e0 2d 3f
       0.6481868 0.3263328 -0.16859528 0.67921346
000020 40 b2 c5 bc 3c 2a 3e 3f e3 21 97 3e 6d 44 08 3e
       -0.024132848 0.74283195 0.2951804 0.13307352
000030 cb 14 a3 bf 30 6c 1b 3e ac 92 c1 3d 16 50 95 be
       -1.274072 0.15177989 0.094518036 -0.29162663
000040 b4 fc 2d 3f ac 1a 5d 3e 01 b4 89 be db 3c 28 3e
       0.6796372 0.21592206 -0.26895145 0.16429465
000050 25 57 88 bf 02 76 33 3f 9a a6 7c 3f 39 ec 7d 3d
       -1.0651594 0.7010194 0.98691714 0.061992858
000060 dc 07 19 3f 35 b4 eb 3e 8e 31 b0 bd b0 a6 82 bd
       0.5977762 0.46035925 -0.08603202 -0.06379449
000070 b3 3a 22 3f 0c 19 7b 3f b7 ad 26 3d 1d 47 16 bf
       0.6337082 0.98085093 0.04069301 -0.5870226
000080 72 6e 13 3f 72 ac a6 be 2b ca 36 bd 86 4d 93 bd
       0.575904 -0.3255344 -0.044626396 -0.07192521
000090 83 a2 f5 3d c8 f5 de 3e 4f 90 7c 3e 45 11 e4 be
       0.11993887 0.4354689 0.24664424 -0.44544426
0000a0 07 68 25 3f eb 7e 82 bf 43 3f 2e 3e 2b f4 2c bd
       0.6461186 -1.0194982 0.1701632 -0.042225044
0000b0 dd c1 50 3e 35 7f 3f be a8 c9 7c 3f 6b 86 1e 3f
       0.20386453 -0.1870087 0.98745203 0.61923856
0000c0 2e 09 5f 3e d9 8d 9b 3e 1e 0e 3f be c4 cb 51 3f
       0.21780846 0.3038166 -0.18657729 0.81951547
0000d0 fd 02 10 3f f6 97 8c be f5 61 57 be b9 38 0c 3f
       0.5625456 -0.27459687 -0.21033461 0.5477405
0000e0 21 31 dd be d3 f3 a2 be e9 af 1d 3e 54 cf 11 3d
       -0.43201545 -0.31826648 0.15399136 0.035598114
0000f0 36 d1 b7 be eb 14 75 bf 64 04 7e 3e a7 aa 98 3e
       -0.35901803 -0.95735043 0.24806362 0.29817697
000100 1b ef f7 3e e8 d1 46 bf 9f 25 d6 be 94 4c 71 3e
       0.4842461 -0.7766404 -0.41825578 0.23564368
000110 fd 09 f3 bd 85 e2 36 3f 74 08 38 bf d6 b0 3b 3e
       -0.118671395 0.7143939 -0.718879 0.18329176
000120 55 a9 16 3f 44 7c 9a 3e ef 79 b1 be 8e 6b e8 bd
       0.5885213 0.30172932 -0.3466334 -0.113486394
000130 04 d6 1f 3f 7a 66 12 3e ae da 67 3d f0 d1 42 bf
       0.62435937 0.14296904 0.056605034 -0.7610159
000140 a4 3c 0e bf 31 70 8a be 6e 94 9a bf 48 a7 35 3e
       -0.5556128 -0.2703872 -1.2076547 0.17739594
000150 54 fc e8 3d 6e 36 de 3c 81 4a 40 bf 20 11 0e 3f
       0.11376253 0.027125563 -0.75113684 0.5549488
000160 0f c2 5e 3e 62 24 cb be 78 b0 e0 3e 30 b9 b1 3f
       0.21753715 -0.39676195 0.43884635 1.388464
000170 d5 62 b0 3d 0a 2d 89 be fb 99 5b 3f 23 fc d4 bd
       0.08612601 -0.26792175 0.8578183 -0.10399654
000180 9e 21 eb 3e 2a fd b3 be 2b 4e 34 bf 2c 17 66 be
       0.45924085 -0.35154086 -0.70431775 -0.22469777
000190 aa 53 0d 3f 83 9b 4e be 68 dd c7 3e 0a b3 7c 3e
       0.55205786 -0.2017651 0.39036107 0.24677673
0001a0 a7 94 54 bf e1 32 08 bd aa 0b 18 be b3 84 06 be
       -0.83039325 -0.033251647 -0.148482 -0.13136558
0001b0 3f bd 25 bf 61 b3 7a 3e 6c 6c a9 bd f3 2b e8 3d
       -0.6474189 0.2448249 -0.08272633 0.11336508
0001c0 ab 26 d7 3d 51 a8 18 bf 23 41 97 bd 03 fe 82 be
       0.10505422 -0.5963183 -0.07385471 -0.2558442
0001d0 8a 0f 22 bf 8f 2c fc be a4 2f c0 3d fe df 49 3a
       -0.6330496 -0.49252746 0.09384087 0.0007700919
0001e0 9d 20 09 bd 1a dd ce 3e eb bf 8e bd 10 8d cb bd
       -0.033478368 0.40403062 -0.06970199 -0.09939015
0001f0 00 18 09 3d 38 56 f6 be 83 34 dd 3d 47 2b 98 bf
       0.033470154 -0.48112655 0.108010314 -1.1888207
000200 e9 01 68 3e f7 73 a7 3a ae 4b 2f be 0c eb 81 3e
       0.22656979 0.0012775649 -0.17118713 0.2537464
000210 c8 64 fd be 74 36 69 bd 10 aa 89 be b6 a1 7a 3e
       -0.49490952 -0.056936696 -0.2688756 0.2447575
000220 fd 1f e4 bd 23 a1 e0 be e6 19 0e 3e c9 c7 d3 3d
       -0.11138914 -0.43872938 0.13877067 0.1034084
000230 3a bc 9a bc 74 75 57 bf 5c 22 42 3e 0c 68 4c 3e
       -0.018888582 -0.84163594 0.1895842 0.19961566
000240 0a 1f f3 be e1 42 b9 be b5 a1 e3 be ec 81 35 bf
       -0.47484618 -0.36183837 -0.4445931 -0.7090137
000250 b0 5d e2 be c6 8c 20 be e3 e5 af 3e 0d ae 4c 3d
       -0.44212103 -0.15678701 0.34355077 0.049970675
000260 8a 93 2b 3e 74 1d 44 bf 87 c2 8e ba 6b 68 0e 3d
       0.167555 -0.7660744 -0.0010891714 0.03476755
000270 4d 2d 37 bf 2e 71 47 3d a8 ff a1 be 3d 3a 03 3e
       -0.715535 0.04869192 -0.31640363 0.12815185
000280 db 1f 07 bd 8c 0c a8 be 0e d6 75 3e 1c 12 ce 3e
       -0.032989364 -0.32822073 0.24007437 0.4024819
000290 13 82 09 3e 27 e0 43 3e d2 80 0f 3e 0b c0 04 3f
       0.13428526 0.19128476 0.14013985 0.51855534
0002a0 52 54 92 bc 50 77 8e 3e 46 81 0c 3e 78 1d 25 3f
       -0.017862473 0.27825403 0.13721189 0.6449809
0002b0 52 27 80 3e da 72 99 3e 3d 56 89 bf d2 17 8f bf
       0.2503 0.29970437 -1.0729443 -1.1179144
0002c0 91 9b 1d bf c5 80 a9 3e c5 14 4d bf 5a f7 b7 3c
       -0.615655 0.33106056 -0.80109817 0.022456814
0002d0 43 14 96 3e b7 7a 2a 3f 37 04 18 3f ed 95 01 3f
       0.29312333 0.665935 0.5938143 0.50619394
0002e0 07 c7 fe 3e 6a 13 17 bf 2c 68 3c 3c ed 8c 4a bd
       0.4976122 -0.59014 0.011499446 -0.049450804
0002f0 ba 99 91 be 86 08 6a 3e ec f0 0d 3f 25 aa 93 3e
       -0.28437597 0.22854814 0.5544574 0.28840747
000300 ea fc c7 be 9e 1d b3 be ac 13 f7 be 09 9e eb 3d
       -0.39060146 -0.34983534 -0.48257196 0.11504752
000310 05 ea 30 bf 75 a3 cf 3e 1a 10 82 3f 9c 53 64 3e
       -0.69107085 0.40554395 1.0161164 0.2229752
000320 a8 34 1e 3e 4f 8a 53 be 6b 10 02 bf 7c 59 d7 3e
       0.15449774 -0.2065823 -0.508063 0.4206046
000330 2e 39 10 3f bb 63 06 3f 57 40 da 3e 9f 60 58 3f
       0.5633725 0.52495927 0.42627212 0.8452243
000340 dd 20 2a be 00 9f ad 3e 44 21 b3 3e 8d 4c 4a bf
       -0.16614099 0.3391037 0.34986317 -0.7902306
000350 e1 3f 68 bf 92 f5 48 bf 9d c0 7f 3f 89 8f 2e 3f
       -0.9072247 -0.7849971 0.9990328 0.6818777
000360 f4 b6 8c 3e 5a da b3 3e 95 6a af 3e 36 ba 47 bd
       0.27483332 0.35127527 0.34261003 -0.04876157
000370 99 72 97 3e 36 43 26 bf 14 e6 33 3f 5f 66 57 3e
       0.2957962 -0.64946306 0.70272946 0.21035145
000380 85 29 af 3f 11 b0 a5 bf 2b e0 d5 3b 1d d2 09 3f
       1.3684546 -1.2944356 0.006526967 0.5383623
000390 f9 18 13 be 24 2d fe 3e 4a 58 3e 3f 73 ff 38 be
       -0.14364995 0.49643815 0.7435347 -0.18066196
0003a0 14 85 9e be 7e 8c b0 be 46 33 08 3f 23 02 c8 3d
       -0.30960906 -0.34482187 0.5320324 0.097660325
0003b0 60 de bf bf 07 ad 67 bf 37 b5 1b bf 68 6a 3e 3d
       -1.4989738 -0.90498394 -0.60823387 0.046488196
0003c0 40 9b 7a bf d7 49 3e bf 0e f1 3d 3e 96 a1 ee be
       -0.9789314 -0.7433142 0.18548986 -0.46607655
0003d0 20 c8 96 3e 06 a8 96 3e 74 25 d0 3d e4 1a a5 bf
       0.29449558 0.29425067 0.101633936 -1.2898831
0003e0 a7 33 19 3e fb ae 98 bf ab 11 f8 3d 12 e0 2a 3f
       0.1496111 -1.19284 0.12112745 0.66748154
0003f0 bf d3 f6 3e 50 9b 91 be bb 64 51 bf 0a 9b 00 be
       0.48208424 -0.28438807 -0.8179433 -0.12559143

l2.bias f4 [96]
000000 f2 00 aa be 40 8b a1 be 29 19 05 bf e6 56 be be
       -0.33203846 -0.31551552 -0.51991516 -0.37175673
000010 cb a0 d3 be 72 af f0 be 84 45 85 be 82 81 25 bf
       -0.41333613 -0.47008854 -0.260296 -0.6465074
000020 0c 8a 1f be 49 45 bc be ef 65 05 bf e0 cb a8 be
       -0.15580004 -0.3677161 -0.52108663 -0.32968044
000030 6f 70 f2 3d 86 dc 01 be 7f 06 0f be aa fc bd be
       0.11837851 -0.1268178 -0.13967322 -0.3710683
000040 ca 0e a8 be 54 6c 64 be 35 a1 9b bd b1 46 23 be
       -0.32823783 -0.22306949 -0.07599107 -0.15944935
000050 78 74 4f be 77 c6 ce be 34 4b af be 8c 4a 61 be
       -0.20259273 -0.40385792 -0.34237063 -0.22001094
000060 2e 6e e8 be 75 83 b7 be 88 1a da be e1 5c 2f be
       -0.4539656 -0.3584248 -0.42598367 -0.17125274
000070 0e 31 4b be 36 91 fe be 1f 91 ac be bf 07 97 be
       -0.19842932 -0.49720162 -0.3370447 -0.29498097
000080 3e 60 70 be 0f 6e e1 be 64 29 c2 bd 4c c7 b3 be
       -0.23474213 -0.4402928 -0.09480551 -0.3511299
000090 49 bc d7 bd 67 cf 60 be 61 12 8b be 14 48 b9 bd
       -0.105339594 -0.21954118 -0.2716246 -0.09046951
0000a0 52 ab 16 bf 31 93 c2 be d8 74 72 be 2e 54 a0 be
       -0.58855164 -0.38002923 -0.23677385 -0.31314224
0000b0 bf 63 d4 be 5c e5 a2 be 35 80 31 be 1c e1 50 be
       -0.4148235 -0.31815612 -0.17334063 -0.20398372
0000c0 9b 18 97 be 36 2a 47 be a6 bb eb be d1 b7 8f be
       -0.2951096 -0.19449696 -0.46041602 -0.28069928
0000d0 3b 06 00 bf 14 0f 4c bf 8e 05 1f bf 75 ca 39 be
       -0.50009507 -0.7971051 -0.6211785 -0.18143637
0000e0 8c 58 a6 be b2 a0 49 be 86 ab 85 bc 86 06 95 be
       -0.3248943 -0.19690207 -0.01631714 -0.2910654
0000f0 9e 85 6b bf 6f 7b d7 be 89 7b 2a be b5 44 6a be
       -0.9200076 -0.4208636 -0.16648687 -0.22877772
000100 1f 21 a1 be b7 7a aa be d8 17 c9 be db 61 1d bf
       -0.31470582 -0.3329675 -0.39276004 -0.6147744
000110 28 3f 0e be 82 3f 77 bd df f1 f3 bd 80 3b 29 be
       -0.1389128 -0.0603633 -0.119113676 -0.16526604
000120 f4 a1 37 bf 78 db 0b bc b6 7a b9 be 86 60 87 be
       -0.71731496 -0.008536212 -0.36226434 -0.2644083
000130 cd e1 8c be 94 09 3c bf a5 35 a6 bd 64 b6 d2 be
       -0.27516022 -0.73452115 -0.08115701 -0.41154778
000140 45 69 45 be 64 c7 e2 be fa c8 df be 31 85 5c be
       -0.19278438 -0.44292748 -0.4370802 -0.21535183
000150 ac 1c d5 be c3 2a 6e be e6 d9 08 be 19 db a9 be
       -0.41623437 -0.232585 -0.13364372 -0.3317497
000160 8b d3 82 be ff 7f 45 bf dc 29 ae be 39 d8 97 be
       -0.2555202 -0.7714843 -0.3401631 -0.29657152
000170 22 9b 8e be c0 8f e2 be fa 14 ea be 26 9f 66 be
       -0.27852732 -0.44250298 -0.4571913 -0.22521648

l3.weight f4 [112, 96]
000000 73 3c 0a bf 72 66 56 3e cb b9 6f bc 9f f4 78 be
       -0.5399849 0.20937517 -0.014631699 -0.24312066
000010 f4 c9 1a 3e c7 64 29 3e 2e a3 87 3d a9 2b 5b bd
       0.15116102 0.1654235 0.06622921 -0.053508434
000020 ab de 8b bd cc 3d 90 bf 44 f9 a3 bd 9d b5 90 be
       -0.0682958 -1.1268859 -0.08006528 -0.2826356
000030 50 fd f1 c0 63 9d f6 c0 fc 3c e1 bd 97 5e 08 bf
       -7.562172 -7.7067122 -0.1099796 -0.5326933
000040 f4 a5 2c bf 09 93 06 3f a5 2e a3 3d 87 c2 43 be
       -0.67440724 0.5256811 0.07967881 -0.19117175
000050 9c 46 07 bd 86 ac 73 bf ff 7f df bd a3 39 6a 3e
       -0.033026323 -0.95185125 -0.10913085 0.22873549
000060 73 81 0e 3e ea d8 c9 be 45 cd f1 3e 52 25 ad bf
       0.13916568 -0.39423305 0.4722692 -1.3527014
000070 a9 72 d2 bd 7b 8f 7c 3e 18 0b 9d bb 20 be bd be
       -0.10275776 0.24664108 -0.0047925822 -0.37059116
000080 95 5e 32 3f b4 7c 94 3d 9b ee e9 bd f9 dc ac be
       0.6967557 0.07250348 -0.114224635 -0.3376234
000090 6c 85 48 bf 83 a7 24 3e 04 92 25 3e 62 66 bd bc
       -0.78328586 0.16079526 0.16168982 -0.023120109
0000a0 c3 c5 5b 3e 7f a5 42 3e 22 e9 00 bc ed 2a 88 bd
       0.21462159 0.19008444 -0.007868083 -0.066488124
0000b0 c2 a1 94 3c e3 9e 54 3e 05 b7 8f 3e 3c f5 df c0
       0.018143538 0.20763735 0.2806932 -6.998686
0000c0 7d d5 c6 be 53 e5 8d bd 1f 9b 1b 3e cc ce 1f 3e
       -0.38834754 -0.06928506 0.15195893 0.1560623
0000d0 2a d5 b3 bd 73 1d 3a 3e f4 88 92 be f0 7f b2 3c
       -0.08780892 0.18175296 -0.28620112 0.021789521
0000e0 f5 b6 87 3e 6c 76 a4 3e 0b 7f 43 3e 04 f3 08 3e
       0.26506773 0.321216 0.19091432 0.13373953
0000f0 35 19 3a c0 b1 85 67 bf 7a b1 00 3e 2f b1 f2 bd
       -2.9077885 -0.9043837 0.12567702 -0.11850201
000100 1f d7 25 3e 06 0c 89 bc 50 13 ef be ce 95 b4 3e
       0.16195343 -0.016729366 -0.46694422 0.35270542
000110 8f c3 2a 3d 44 9b 9d be 0e a4 ce 3e e3 3d ab be
       0.041690405 -0.3078252 0.4035954 -0.33445653
000120 13 4b 87 bf d4 bb be c0 77 e6 88 be 91 ac 3a 3e
       -1.0569786 -5.960428 -0.2673833 0.18229891
000130 07 21 75 bd 06 35 a9 be 76 df 08 bd 77 65 a9 bc
       -0.05984595 -0.33048266 -0.033416234 -0.020678265
000140 64 4f 7a 3d b0 eb c9 3e 24 f1 a7 3d cc ce d2 3e
       0.06111087 0.39437628 0.08200291 0.41173398
000150 76 94 55 bf 79 c8 12 3f 02 60 85 bc 5e 0c a5 3d
       -0.8342966 0.57337147 -0.016281132 0.080589995
000160 fa 77 f7 3e 3c 3f 94 bf ec cb a1 bd f4 8b e6 bf
       0.48333722 -1.1581798 -0.07900223 -1.801146
000170 db 1a 55 bf da 02 8a bf b2 08 62 bf ca 1b 02 3f
       -0.83244103 -1.078212 -0.8829452 0.5082365
000180 69 91 90 bf 2f 9a aa 3e 51 36 29 3d dd be 2a 3e
       -1.1294376 0.33320758 0.041311566 0.16674371
000190 4e c5 d1 be 80 36 05 bf 67 03 62 bf 26 48 38 3e
       -0.40970844 -0.52036285 -0.8828644 0.17996272
0001a0 a8 83 14 bf fe e8 cc bf fd f1 a8 3e 69 88 00 bf
       -0.5801339 -1.6008604 0.32997122 -0.50208145
0001b0 5d 97 ed c0 37 a0 12 c1 0a ac c2 3c a4 28 e8 be
       -7.424727 -9.164115 0.023763675 -0.45343506
0001c0 f8 09 44 3d 95 3f 98 be 07 dd 82 bd 34 86 81 3e
       0.04786107 -0.2973601 -0.06389814 0.252977
0001d0 0b 64 91 bf fd d4 a6 bf b2 b3 4f bf 5c ab 7e 3e
       -1.1358656 -1.3033749 -0.8113357 0.24870056
0001e0 60 b8 96 be e8 a8 92 bf 00 5e ae 3e 26 71 27 c0
       -0.29437542 -1.1457796 0.3405609 -2.616281
0001f0 8c 3c 19 3b 01 a7 c4 3e 8b d5 ab 3e c7 68 d9 3d
       0.0023382036 0.38408664 0.33561358 0.10615688
000200 a2 b8 03 3f ec 6d 83 3e ea f0 29 bf d3 0f da be
       0.514536 0.256698 -0.6638323 -0.42590198
000210 2e 90 88 3e df 12 20 3e c0 e8 82 3e fb 7e 7e bb
       0.266725 0.15632199 0.255682 -0.003883301
000220 2d 6f af 3e f1 e7 13 3d ac 11 3c be c2 7a c6 3e
       0.34264508 0.03610987 -0.18366116 0.38765532
000230 78 e0 5c be 73 ab b0 3e 86 fd ac 3e 8a a0 6d c0
       -0.21570003 0.34505805 0.33787173 -3.7129235
000240 8a 9b 4a bf 9a fb bc 3d e2 64 78 be 6a e1 6c bf
       -0.79143584 0.09227677 -0.24257234 -0.92531455
000250 05 de 49 bf da 78 b7 3e 7f a5 a7 bf 41 9e a6 bd
       -0.788544 0.3583439 -1.309738 -0.08135653
000260 7e dd ae 3e f9 13 29 3e c9 5c 58 be db 48 fd bd
       0.3415336 0.16511525 -0.21129145 -0.12367412
000270 f1 7d 2a c0 de 1c 81 3e 7f 22 4b be 96 96 67 3e
       -2.6639369 0.25217336 -0.19837378 0.22616038
000280 3e 66 5f 3e ff 2e f0 bd fe 8f 09 3f 76 01 01 bf
       0.21816346 -0.11727714 0.5373534 -0.50392854
000290 32 0b 41 bd e1 9d fc 3d d3 85 14 be 42 c4 47 3d
       -0.047129817 0.123348005 -0.14504175 0.04877115
0002a0 6c 3e b5 be 71 b7 b9 c0 2a 69 71 be 1f 13 91 3e
       -0.35399187 -5.8036427 -0.23575273 0.283349
0002b0 31 57 4a 3d a5 75 34 3d 12 9e df 3c b5 08 1e 3d
       0.04939956 0.044057507 0.027297053 0.038582522
0002c0 3f a5 01 3f bc 81 98 bc 92 9e 4f 3e ad d5 13 3e
       0.5064277 -0.01861655 0.20275334 0.1443698
0002d0 f9 52 b6 bf db 3c b3 bd c8 b6 71 bd f0 e1 08 bf
       -1.4244071 -0.08751842 -0.059012204 -0.53469753
0002e0 07 68 e4 3c 2e 70 85 bf f1 ec 31 bf ca 46 2f 3e
       0.027881635 -1.042486 -0.6950217 0.17116848
0002f0 60 f8 56 be 26 05 63 bc 24 c1 f9 be c1 5a eb bd
       -0.20993185 -0.013856208 -0.48780167 -0.11491919
000300 88 8e 38 bf 14 79 8e be bd 00 29 bf 29 45 3d 3e
       -0.72092485 -0.2782675 -0.6601675 0.18483414
000310 05 5a 07 3d 0a 1f 04 3e fd ed a5 be 05 84 a9 3d
       0.033044834 0.12902465 -0.32408133 0.08277134
000320 b5 7d 36 bf e0 07 cc bf 51 4d 25 3e 78 de 8f bf
       -0.71285564 -1.5939903 0.16142775 -1.1239767
000330 29 31 a8 c0 1d d1 d1 c0 73 9e e0 3b e4 29 0f be
       -5.256001 -6.5567765 0.006854826 -0.13980824
000340 de 1e fd 3d 0e 30 eb be ed 4d cf bd fa 6d 32 bd
       0.12359403 -0.459351 -0.10122285 -0.043561913
000350 da 30 8f be 3d 6e 98 bf f2 e0 f4 bf fb 89 25 be
       -0.27966958 -1.1908642 -1.9131148 -0.16165917
000360 89 01 14 3e 81 02 bf bf e2 8c 68 bf 6f 87 11 c0
       0.1445371 -1.4922639 -0.9083997 -2.2738912
000370 1c 5d 62 be 21 99 93 3e 1e e6 42 bd c3 02 05 be
       -0.22105831 0.28827766 -0.047582738 -0.12989335
000380 ef af c0 be 11 89 bc be ee 4e 29 be d9 5f c2 3e
       -0.37634227 -0.36823323 -0.16534016 0.3796375
000390 78 5d ee 3d ff ed cd bc 61 49 a0 be 1c 3e f0 bc
       0.116389215 -0.0251379 -0.31305984 -0.029326491
0003a0 da ee 85 bf 2c 49 44 3e 0b 11 3c c0 24 1a e6 be
       -1.0463517 0.19168538 -2.9385402 -0.4494182
0003b0 e8 dc bb be 31 fe 67 3e 97 6e 83 bd cf 5e fb bf
       -0.36691976 0.2265556 -0.06417578 -1.9638308
0003c0 15 45 9a 3d 92 25 b2 be a9 97 9a bf 8b a2 9e bf
       0.075327076 -0.3479429 -1.2077533 -1.2393354
0003d0 d5 1f 7d be 25 fc 0d bf c7 dc 2c c0 9c 16 36 3d
       -0.24719174 -0.5546287 -2.7009752 0.044455156
0003e0 81 1a 49 3e 26 f4 0e be f2 12 a1 bf 95 4e 25 be
       0.19639017 -0.13960323 -1.2583907 -0.16143258
0003f0 c8 28 36 c0 48 c8 a4 be 56 9e b1 be 12 ee 49 be
       -2.846239 -0.32184052 -0.34691113 -0.19719723

l3.bias f4 [112]
000000 db ea 92 c1 29 c9 93 c1 b2 29 93 c1 b8 9d 94 c1
       -18.364676 -18.473223 -18.395359 -18.577011
000010 9b fb 8c c1 08 c7 8f c1 9a a7 93 c1 77 bc 8f c1
       -17.622854 -17.972183 -18.456837 -17.967024
000020 52 62 94 c1 0f 41 93 c1 3a ae 90 c1 f8 27 92 c1
       -18.548008 -18.406767 -18.085072 -18.269516
000030 b5 e0 95 c1 1b 35 96 c1 d8 cc 95 c1 cd 18 95 c1
       -18.73472 -18.77593 -18.725021 -18.63711
000040 8f 08 96 c1 d2 75 8b c1 99 ec 92 c1 9f 73 92 c1
       -18.754179 -17.43253 -18.365526 -18.306456
000050 ac 3b 8e c1 c4 61 8f c1 2a fa 97 c1 4a ca 91 c1
       -17.779137 -17.922737 -18.99715 -18.223774
000060 d8 2c 94 c1 a8 06 62 3f a9 79 95 c1 9e 80 95 c1
       -18.521896 0.88291407 -18.684404 -18.687801
000070 74 63 8d c1 68 b1 33 bf 65 de 96 c1 d6 15 93 c1
       -17.673561 -0.70192575 -18.858591 -18.385662
000080 3d cb 8f c1 e5 39 92 c1 6b 46 95 c1 e2 83 91 c1
       -17.974237 -18.278269 -18.659384 -18.189396
000090 e2 8f 50 3f 6b 44 94 c1 2d 23 90 c1 55 a7 94 c1
       0.8146955 -18.533407 -18.017176 -18.581705
0000a0 90 ea 8b c1 11 9b 8e c1 75 cc 86 c1 5c 4c 98 c1
       -17.489532 -17.825716 -16.849833 -19.037285
0000b0 e4 0a 93 c1 8e e0 91 c1 2b 6e 8b c1 6e 24 91 c1
       -18.380318 -18.234646 -17.428793 -18.142788
0000c0 b4 72 91 c1 d1 9e 8e c1 96 70 94 c1 b9 39 91 c1
       -18.181007 -17.827547 -18.554974 -18.153185
0000d0 e8 ed 97 c1 98 d4 96 c1 a7 08 96 c1 56 c6 96 c1
       -18.991165 -18.853806 -18.754225 -18.846844
0000e0 12 c2 8d c1 33 b3 92 c1 c7 de 96 c1 cb 3e 8e c1
       -17.71976 -18.3375 -18.858778 -17.78066
0000f0 03 1c 95 c1 90 f4 97 c1 d9 89 97 c1 5a 7f 98 c1
       -18.638678 -18.994415 -18.942308 -19.062183
000100 38 c1 95 c1 db 3b 96 c1 c4 2d 95 c1 9e dd 92 c1
       -18.719345 -18.779226 -18.647346 -18.358212
000110 b7 87 98 c1 b0 3f 8f c1 e3 eb 94 c1 b0 f2 95 c1
       -19.066267 -17.906097 -18.61518 -18.7435
000120 b0 24 95 c1 29 56 98 c1 81 bf 96 c1 e6 eb 92 c1
       -18.642914 -19.04207 -18.843508 -18.365185
000130 a0 4e 93 c1 6a 24 96 c1 b3 43 96 c1 12 58 93 c1
       -18.413391 -18.76778 -18.783056 -18.418003
000140 3a 7c 96 c1 3c f4 94 c1 c2 bf 95 c1 7d 9d 91 c1
       -18.810658 -18.619255 -18.718632 -18.201899
000150 29 ee 96 c1 35 11 98 c1 25 5b 95 c1 9e 99 97 c1
       -18.86629 -19.008402 -18.669504 -18.950008
000160 de 25 8f c1 7f 6e 94 c1 6f ba 95 c1 f7 6c 92 c1
       -17.89349 -18.553953 -18.716032 -18.303205
000170 48 6f 95 c1 61 74 95 c1 85 2d 96 c1 69 e0 95 c1
       -18.679337 -18.681826 -18.772226 -18.734575
000180 6b 5d 91 c1 24 3c 35 bf 5c 4d 8f c1 f6 ca 92 c1
       -18.170614 -0.7079489 -17.912773 -18.349102
000190 8b 4f 95 c1 1d 89 91 c1 ee 5d 92 c1 4b d6 93 c1
       -18.66384 -18.19195 -18.295864 -18.479635
0001a0 b0 c4 93 c1 d9 84 92 c1 ac 33 95 c1 33 63 95 c1
       -18.471039 -18.314867 -18.65023 -18.673437
0001b0 0c dc 96 c1 7f 92 91 c1 1a d2 95 c1 f6 81 8f c1
       -18.857445 -18.196531 -18.727589 -17.938457
