long_term_memory/speech_data.pth (torch, 235775 bytes, 6 tensors)

l1.weight f4 [96, 377]
0.10483993 0.45034 -0.01457143 -0.11267773 -0.19542491 0.23031451 -0.11720582 -0.09844471
-0.39736834 0.5134213 0.90367514 0.0077709453 0.5866828 -0.27420902 -0.12112006 0.8312593
0.5882294 0.5546698 0.36707544 -0.5586354 0.48455805 0.8482615 0.78678745 0.89936775
0.26718676 0.8095796 0.96071607 -0.16464664 0.65258193 -0.02338997 -0.038904693 1.2012024
0.13944747 0.28348026 0.9487582 0.6613952 -0.051145725 0.40792683 0.53100216 0.68239105
0.5416247 1.0213567 0.3651556 0.1913438 0.09913296 0.26099285 1.5182678 0.11385077
0.83780736 -0.29762462 0.16946766 -0.10011524 0.5145801 0.6373717 -0.10274124 -0.15489064
0.13945343 0.40068087 0.48153487 0.054572813 0.9921135 0.1438315 0.437069 -0.052693907
0.5584889 0.14838363 0.13212541 -0.05668263 0.36552525 0.29644075 0.3255743 1.011107
0.3265515 0.3674024 0.20883043 0.41115072 0.09482389 -0.32344836 0.28528208 -0.18589719
0.38564906 0.19337356 0.35789806 0.2074736 0.90859723 0.21928811 -0.78907144 -0.77026695
1.1198971 1.4285032 0.3862796 -0.18850462 0.5448447 0.23580146 0.035050865 1.0654633
0.5972237 0.5854773 -0.390738 -0.2536922 0.5481432 1.0107303 1.0158871 1.6332456
0.811467 0.23346849 0.5595816 0.42856976 0.4336787 -0.084910356 0.50854546 0.40675652
-0.089104235 0.116416216 0.13292308 0.06394969 0.73647785 0.4346037 0.4618803 0.3251677
0.6048118 0.644579 1.0096694 0.23560028 0.9498559 0.2705896 -0.12564209 0.51784533
1.0600208 0.43994737 0.00694915 1.068641 1.1119324 0.61191064 1.2548804 0.5698113
0.433506 1.5189605 1.022836 0.6419337 1.6664839 -0.09249218 0.662846 0.8199277
0.86851484 0.14582044 0.021172062 0.7139517 1.4820439 1.9260365 -0.17407803 -0.315656
0.7689509 -0.11479527 0.17420207 0.0048291534 0.3604922 0.76341426 1.6162016 0.53575706
0.3070938 0.82063365 -0.26063803 0.30151942 0.60915804 0.57288766 0.4032876 0.89350283
0.75105995 0.5379144 0.33651143 0.37384084 0.79602444 1.0052979 0.46199578 0.09094529
0.15277845 0.11283109 0.123469956 0.16675083 0.09239025 -0.14077052 -0.22125529 0.42852926
0.11495087 -0.25138235 -0.29525363 -0.20947388 0.653969 0.8074424 0.31106296 0.62283033
0.21900797 -0.047517516 -0.35296634 0.6423569 -0.3284669 1.6499317 -0.0445487 0.13718547
0.21669365 -0.35620198 -0.31562635 -0.13107345 0.9370888 -0.6061752 0.19267666 0.26873365
0.47939172 1.1913006 0.7211986 1.0650455 -0.10461602 0.921044 0.9950471 0.35545075
-0.3242009 -0.41445413 -0.043540005 0.1149548 0.34344557 0.31021586 0.6971556 0.10645899
0.3577208 0.2562335 0.83915174 2.0978506 0.3460121 -0.13588314 -0.092368275 -0.18870752
-0.2991669 0.2561091 0.5719766 0.4644479 0.6989392 1.2141623 1.1386065 0.14927618
0.86261433 0.20348103 -0.41219565 1.5492531 0.061262213 0.06809582 0.54821837 0.22206423
0.6301174 -0.21650513 0.12507582 -0.09629024 0.40845063 0.06461455 0.76359487 0.31573868
00000000: 51b6 d63d f792 e63e 02bd 6ebc 95c3 e6bd
00000010: 781d 48be 91d7 6b3e 9b09 f0bd 619d c9bd
00000020: dd73 cbbe 946f 033f 4157 673f 6aa3 fe3b
00000030: d830 163f 2065 8cbe cb0d f8bd 69cd 543f
00000040: 3496 163f d7fe 0d3f 50f1 bb3e bb02 0fbf
00000050: fe17 f83e aa27 593f e76a 493f f73c 663f
00000060: b4cc 883e 9c40 4f3f 7df1 753f 2199 28be
00000070: 9c0f 273f 539c bfbc 875a 1fbd 00c1 993f
00000080: 51cb 0e3e 5324 913e d1e1 723f 3251 293f
00000090: 2e7e 51bd c9db d03e c2ef 073f 2eb1 2e3f
000000a0: eba7 0a3f d1bb 823f adf5 ba3e a1ef 433e
000000b0: 3906 cb3d dba0 853e 9956 c23f 982a e93d
000000c0: 8b7a 563f 4162 98be ee88 2d3e 3809 cdbd
000000d0: 85bb 033f cb2a 233f 006a d2bd a79b 1ebe
000000e0: e1cc 0e3e 0b26 cd3e bd8b f63e be87 5f3d
000000f0: 26fb 7d3f 9148 133e 82c7 df3e 91d5 57bd
00000100: 21f9 0e3f e1f1 173e e24b 073e 0c2c 68bd
00000110: 2026 bb3e 15c7 973e adb1 a63e f46b 813f
00000120: c231 a73e 2b1c bc3e a5d7 553e 5982 d23e
00000130: 0733 c23d 069b a5be 7e10 923e d55b 3ebe
00000140: cb73 c53e b803 463e 6a3e b73e f673 543e
00000150: d499 683f 108d 603e 9600 4abf 3730 45bf
00000160: ca58 8f3f 31d9 b63f 71c6 c53e 5b07 41be
00000170: f17a 0b3f f075 713e 7f91 0f3d 1a61 883f
00000180: a7e3 183f d7e1 153f d00e c8be f2e3 81be
00000190: 1d53 0c3f 9c5f 813f 9708 823f 310e d13f
000001a0: 4dbc 4f3f 5d12 6f3e bd40 0f3f 7f6d db3e
000001b0: 220b de3e 7be5 adbd 0930 023f 6442 d03e
000001c0: 487c b6bd a06b ee3d fd1c 083e 0ef8 823d
000001d0: d089 3c3f 6084 de3e 937b ec3e 617c a63e
000001e0: f2d4 1a3f 2103 253f d93c 813f 3341 713e
000001f0: c229 733f b88a 8a3e 52a8 00be 8391 043f
00000200: c3ae 873f c840 e13e b2b5 e33b 3ac9 883f
00000210: cd53 8e3f 2da6 1c3f ec9f a03f 27df 113f
00000220: 80f4 dd3e 4c6d c23f 4aec 823f c455 243f
00000230: 584f d53f 8a6c bdbd 47b0 293f c8e6 513f
00000240: fd56 5e3f f451 153e 0871 ad3c 8ac5 363f
00000250: 9db3 bd3f 5d88 f63f 8341 32be aa9d a1be
00000260: f7d9 443f c819 ebbd 0762 323e e03d 9e3b
00000270: 6f92 b83e 1e6f 433f b2df ce3f 6027 093f
00000280: 663b 9d3e 0c15 523f 5972 85be c160 9a3e
00000290: c8f1 1b3f c4a8 123f b67b ce3e 9abc 643f
000002a0: 7745 403f c2b4 093f 3a4b ac3e 1168 bf3e
000002b0: 42c8 4b3f 9aad 803f b68a ec3e 8641 ba3d
000002c0: f471 1c3e fd13 e73d d1dd fc3d bbc0 2a3e
000002d0: 1937 bd3d 2626 10be bf90 62be 3068 db3e
000002e0: 5d6b eb3d 30b5 80be 7c2b 97be 5280 56be
000002f0: 836a 273f 8cb4 4e3f a543 9f3e cf71 1f3f
00000300: a043 603e baa1 42bd 01b8 b4be 8071 243f
00000310: d02c a8be f630 d33f b378 36bd 597a 0c3e
00000320: f1e4 5d3e 1b60 b6be c799 a1be 1e38 06be
00000330: 0de5 6f3f 4c2e 1bbf 084d 453e 7597 893e
00000340: d572 f53e 8a7c 983f 79a0 383f 6953 883f
00000350: ed40 d6bd 8ac9 6b3f 68bb 7e3f a4fd b53e
00000360: a9fd a5be 5533 d4be 0157 32bd 6c6d eb3d
00000370: 19d8 af3e 9dd4 9e3e ca78 323f 2c07 da3d
00000380: 2e27 b73e 0a31 833e a6d2 563f 2f43 0640
00000390: 7f28 b13e f324 0bbe 942b bdbd 8b3c 41be
000003a0: 672c 99be bb20 833e 0f6d 123f 1dcc ed3e
000003b0: aeed 323f ac69 9b3f dcbd 913f dbdb 183e
000003c0: 4bd4 5c3f 555d 503e 4f0b d3be ed4d c63f
000003d0: 16ee 7a3d d275 8b3d 0a58 0c3f ce64 633e
000003e0: 604f 213f 85b3 5dbe e013 003e d133 c5bd
000003f0: 7120 d13e a254 843d f47a 433f 80a8 a13e

l1.bias f4 [96]
0.33485213 0.73171955 0.38316187 0.47827804 0.6052804 0.44727767 0.018151501 0.5627585
0.38181093 0.5303512 0.07581882 0.8089357 -0.32218754 -0.09321437 0.4441945 -0.0050388887
-0.008223045 0.0725399 0.32955268 0.18550324 0.034727037 0.324086 -0.456313 -0.1011498
0.801267 -0.66870564 -0.63992506 -0.66668165 -0.44073308 0.3696867 -0.103516005 0.5484913
0.063032374 0.19334383 0.18516073 0.16215137 -0.27451444 0.3447783 1.0038674 -0.5160261
-0.008732279 -0.41045824 0.44360036 -0.3239344 0.5589387 0.34754503 0.54527706 -0.16033813
0.7442025 0.25334063 -0.16761912 -0.59908175 0.14521736 0.6608811 -0.33571792 0.6254868
-0.09245963 -0.29686365 0.38492736 0.4135899 -0.24728094 0.39170617 -0.7762161 0.38363963
0.42733753 -0.55777866 -0.11681927 -0.42837828 -0.6521542 0.5233012 0.08713145 0.6535506
0.0841015 -0.5557702 -0.28440484 0.045256328 0.31665322 0.7782796 0.91730297 0.1872612
-0.07390012 0.29219627 0.08363543 -0.6407879 -0.2796267 0.8150183 0.4516766 0.18435279
-0.015923433 -0.25528172 -0.022645146 0.7312462 -0.1925491 -0.24178344 0.16004646 -0.2139327
00000000: bd71 ab3e f951 3b3f cb2d c43e dce0 f43e
00000010: a8f3 1a3f 9401 e53e 75b2 943c f110 103f
00000020: b97c c33e 19c5 073f e646 9b3d 6916 4f3f
00000030: c4f5 a4be 2de7 bebd 766d e33e 431d a5bb
00000040: f3b9 06bc cd8f 943d 21bb a83e 90f4 3d3e
00000050: f03d 0e3d 9aee a53e dca1 e9be a027 cfbd
00000060: d61f 4d3f 4b30 2bbf 21d2 23bf a6ab 2abf
00000070: c4a7 e1be 9347 bd3e 3300 d4bd ed69 0c3f
00000080: 1e17 813d edfb 453e c69a 3d3e 020b 263e
00000090: 288d 8cbe c886 b03e ba7e 803f 491a 04bf
000000a0: d511 0fbc 9527 d2be 961f e33e bbda a5be
000000b0: 9b16 0f3f 6cf1 b13e 4797 0b3f ae2f 24be
000000c0: 0e84 3e3f ddb5 813e 59a4 2bbe 6c5d 19bf
000000d0: dcb3 143e 812f 293f 38e3 abbe e71f 203f
000000e0: 795b bdbd 83fe 97be 3315 c53e 0ec2 d33e
000000f0: 3737 7dbe b68d c83e 19b6 46bf 6a6c c43e
00000100: fccb da3e 95ca 0ebf f13e efbd 6654 dbbe
00000110: 94f3 26bf 11f7 053f f971 b23d 184f 273f
00000120: 683d ac3d f546 0ebf 839d 91be b35e 393d
00000130: 5f20 a23e 553d 473f 5ed4 6a3f 66c1 3f3e
00000140: f258 97bd c09a 953e 0d49 ab3d ad0a 24bf
00000150: 3b2b 8fbe 0aa5 503f 2842 e73e fac6 3c3e
00000160: dc71 82bc 49b4 82be 5082 b9bc f332 3b3f
00000170: 972b 45be 1496 77be 38e3 233e 2c11 5bbe

l2.weight f4 [96, 96]
1.2746351 0.60628915 0.56685644 -0.70032054 -0.3446572 1.2522897 -0.52774596 0.4489965
0.64018595 -1.1594604 0.028353294 -0.19102795 0.3315344 -0.4849158 0.64375496 -0.2945362
0.42761168 0.3832458 -0.30247688 0.39551225 -0.19644532 0.4977478 0.8946526 0.7711411
1.3291618 -0.5745618 0.19197214 0.10343684 0.6941719 -1.5534565 -0.36073473 -0.22492532
-0.160569 -0.42452165 -1.2842538 -0.54091275 0.6792606 0.24297479 1.0391455 -0.2506215
-0.34700748 0.62008125 -0.07446176 -0.10251223 1.4020059 -0.8343501 0.18374926 -0.66930497
1.0406592 -0.4834756 -0.474055 0.5691854 -0.16809665 -0.54707813 -0.09241355 1.0354978
0.40221098 -0.2620288 0.37755546 -0.31231356 0.73355806 -1.2114326 0.08051025 -0.2383872
-0.9935474 0.19459276 -0.27361754 -1.1241627 0.68233085 -0.5478237 0.26714957 0.4637542
-0.1305084 0.33746845 -0.2653403 0.2843499 -0.22615722 0.8048474 -0.17515247 0.0985816
-0.07114493 0.2209047 -0.90643644 0.023071202 0.12095231 -0.9618704 -0.48778245 -0.11906807
0.4011978 -0.9232318 -1.4504536 0.9031159 -0.41116652 0.4935812 0.16781598 0.2588095
-0.0056378804 -0.18499312 -0.044868123 -0.059456863 -0.1401375 -0.078028865 0.021276336 -0.10607226
-0.004595916 -0.12684926 -0.045976464 0.047963616 -0.10536065 -0.041317668 -0.106379926 -0.0419587
-0.05159866 0.047323026 -0.12946151 -0.09811311 -0.05906891 -0.12009666 -0.043531764 -0.016894855
-0.07243092 -0.0019753342 -0.05603878 -0.004307123 -0.01722231 -0.012991605 -0.067399435 -0.17354247
0.075071424 3.7233982e-05 -0.033600964 0.060118064 -0.10804976 -0.085026115 -0.1289023 -0.010928678
0.03492144 -0.074672155 -0.03617123 -0.008134928 -0.14677463 -0.00837099 -0.13791122 -0.10551872
-0.055674378 -0.06693797 0.008537789 0.04168691 -0.050471455 -0.19707249 -0.039792217 -0.10786699
-0.09221385 -0.010772381 -0.1405553 -0.09971251 0.040126882 -0.036656275 0.045161687 -0.09502975
-0.108832285 -0.121072054 0.04657213 -0.22197554 0.02537504 0.04326109 -0.10742428 -0.020915814
-0.16857989 -0.17445159 -0.15242618 -0.1051353 -0.07663195 -0.12803137 -0.06694166 -0.013104907
-0.09886148 -0.12455072 -0.023908228 0.004257701 -0.11912228 -0.14560689 -0.12454429 -0.08958164
-0.11196359 0.055794336 -0.14950402 -0.01563378 -0.010131397 -0.21921177 -0.036680967 -0.11054586
-0.11380359 0.43968472 0.50801045 -0.0072455765 -0.9402438 -0.6380936 -0.098402455 -0.9278871
0.49060008 -1.0775834 0.24926211 -1.2298448 0.056949362 -0.10109093 0.45867836 1.0607092
0.47224694 0.5767824 0.08507642 -0.04806521 0.20752837 0.40612054 0.2363358 -0.31987566
-1.2749844 -0.5641231 0.6348721 0.40850115 0.25777844 -0.50793976 0.039352883 -0.4398076
-0.2654769 -0.9582368 0.67194206 0.27301064 0.50901866 0.1151997 0.45333675 0.7906778
-0.24126583 -0.0424725 -0.803854 0.10043719 -0.4846818 -0.36425266 0.31629574 0.4604024
0.41542038 0.562071 0.32439584 0.7252822 0.3710719 1.6664666 0.7563815 -0.10337448
-0.12087106 0.52381134 0.8953817 0.8944986 -0.34908772 -0.7440885 -0.06734859 -1.5257651
00000000: 3e27 a33f c435 1b3f 811d 113f 3548 33bf
00000010: e976 b0be 074b a03f 5c1a 07bf dfe2 e53e
00000020: 3ae3 233f 3369 94bf 2b45 e83c d59c 43be
00000030: e0be a93e e246 f8be 20cd 243f 73cd 96be
00000040: ebef da3e cb38 c43e 40de 9abe 9580 ca3e
00000050: f628 49be cdd8 fe3e f407 653f 8169 453f
00000060: f921 aa3f 7b16 13bf 5894 443e b2d6 d33d
00000070: 40b5 313f aad7 c6bf 39b2 b8be d352 66be
00000080: 336c 24be e75a d9be 6e62 a4bf 4279 0abf
00000090: 06e4 2d3f 62ce 783e b802 853f 7651 80be
000000a0: f7aa b1be a5bd 1e3f 687f 98bd eff1 d1bd
000000b0: ee74 b33f f897 55bf c428 3c3e 9257 2bbf
000000c0: 5234 853f 1d8a f7be 56b7 f2be 22b6 113f
000000d0: 8721 2cbe 500d 0cbf 5143 bdbd 318b 843f
000000e0: 99ee cd3e a428 86be f34e c13e 90e7 9fbe
000000f0: 76ca 3b3f 3910 9bbf 8fe2 a43d c61b 74be
00000100: 1f59 7ebf 5343 473e 9917 8cbe 90e4 8fbf
00000110: 3cad 2e3f 2d3e 0cbf d4c7 883e 3171 ed3e
00000120: fea3 05be aac8 ac3e afda 87be 4f96 913e
00000130: c295 67be 7b0a 4e3f 2b5b 33be 26e5 c93d
00000140: 6fb4 91bd d734 623e 380c 68bf d1ff bc3c
00000150: d8b5 f73d 233d 76bf 9fbe f9be f6d9 f3bd
00000160: cc69 cd3e eb58 6cbf 77a8 b9bf 9b32 673f
00000170: 6b84 d2be adb6 fc3e f4d7 2b3e ae82 843e
00000180: f8bd b8bb d66e 3dbe a3c7 37bd 0a89 73bd
00000190: 3480 0fbe 99cd 9fbd b64b ae3c 6a3c d9bd
000001a0: 5699 96bb c6e4 01be d151 3cbd 7f75 443d
000001b0: 53c7 d7bd b73c 29bd b8dd d9bd e3dc 2bbd
000001c0: 1e59 53bd cad5 413d 8f91 04be 87ef c8bd
000001d0: 3ef2 71bd 3df5 f5bd 5d4e 32bd 1467 8abc
000001e0: aa56 94bd 9c74 01bb eb88 65bd c422 8dbb
000001f0: cd15 8dbc beda 54bc b708 8abd 1eb5 31be
00000200: 0cbf 993d af2b 1c38 2aa1 09bd 5c3e 763d
00000210: 3149 ddbd 2c22 aebd f7fe 03be 330e 33bc
00000220: c909 0f3d b7ed 98bd 4928 14bd 5c48 05bc
00000230: 174c 16be 7a26 09bc 9938 0dbe 331a d8bd
00000240: d10a 64bd c616 89bd 15e2 0b3c e5bf 2a3d
00000250: 28bb 4ebd 5fcd 49be 2afd 22bd 5ee9 dcbd
00000260: 9dda bcbd a47e 30bc bbed 0fbe 1336 ccbd
00000270: 165c 243d e424 16bd 76fb 383d f59e c2bd
00000280: 76e3 debd a0f4 f7bd 6bc2 3e3d 8e4d 63be
00000290: 51df cf3c 8a32 313d 4301 dcbd a457 abbc
000002a0: 35a0 2cbe 70a3 32be 9c15 1cbe 2d51 d7bd
000002b0: 36f1 9cbd a81a 03be b618 89bd f7b5 56bc
000002c0: e377 cabd 7314 ffbd 30db c3bc 2f84 8b3b
000002d0: 62f6 f3bd f919 15be 1411 ffbd 9476 b7bd
000002e0: 2b4d e5bd 9a88 643d 9517 19be 6a12 80bc
000002f0: 29fe 25bc 0d79 60be c83e 16bd de65 e2bd
00000300: db11 e9bd 5b1e e13e f90c 023f 4d6c edbb
00000310: d1b3 70bf 1a5a 23bf 3a87 c9bd 028a 6dbf
00000320: ef2f fb3e 41ee 89bf 913e 7f3e 8e6b 9dbf
00000330: bc43 693d c308 cfbd e4d7 ea3e 52c5 873f
00000340: 5aca f13e 03a8 133f 8c3c ae3d 07e0 44bd
00000350: 5182 543e 08ef cf3e 0302 723e bec6 a3be
00000360: b032 a3bf 5f6a 10bf fa86 223f 1027 d13e
00000370: 89fb 833e 5708 02bf 7d30 213d 762e e1be
00000380: 97ec 87be 024f 75bf 6504 2c3f 0dc8 8b3e
00000390: 0c4f 023f d2ed eb3d c11b e83e dc69 4a3f
000003a0: 640e 77be a5f7 2dbd 60c9 4dbf 03b2 cd3d
000003b0: 3628 f8be 537f babe 84f1 a13e ddb9 eb3e
000003c0: fbb1 d43e e3e3 0f3f 3617 a63e 18ac 393f
000003d0: 23fd bd3e c74e d53f 38a2 413f 00b6 d3bd
000003e0: 3f8b f7bd 8018 063f bc37 653f dcfd 643f
000003f0: a0bb b2be 957c 3ebf 0fee 89bd 454c c3bf

l2.bias f4 [96]
-0.42703635 -0.12138901 -0.28051978 -0.11033293 -0.08749568 -0.31010905 -0.48678592 -0.4044848
-0.41882053 -0.22238761 -0.3135481 -0.31316116 -0.21551582 -0.109553024 -0.3774783 -0.17666812
-0.039606508 -0.10865814 -0.35089418 -0.32515046 -0.2145623 -0.54414856 -0.1456608 -0.12755005
-0.2300845 -0.37334135 -0.36056882 -0.083071195 -0.55247235 -0.10212351 -0.037506845 -0.27131143
-0.07501575 -0.039892673 -0.23246351 -0.23962174 -0.1908986 -0.48003638 -0.7685607 -0.028988436
-0.11994408 -0.20069581 -0.22683804 -0.39033377 -0.0053813374 -0.3375656 -0.35784885 0.020164698
-0.4649706 -0.18789199 -0.15112062 -0.09618819 -0.113699004 -0.49436232 -0.5538808 -0.3878311
-0.32053515 -0.04742581 -0.08893369 -0.24580888 -0.24696223 0.0059145684 -0.13153502 -0.31598714
-0.27825558 -0.27905652 -0.16276123 -0.35099256 -0.2995329 -0.20178084 -0.5535368 -0.10047334
-0.31028 -0.27367556 -0.16888863 -0.39680448 -0.089326225 -0.35017136 -0.42421153 -0.409081
-0.06104619 -0.26054043 -0.34888327 -0.08029731 -0.17498684 -0.21796508 -0.6201821 -0.0728595
-0.55696255 -0.09327796 0.0021096175 -0.16489841 -0.25567132 -0.06452332 -0.5061113 -0.16170381
00000000: 82a4 dabe cd9a f8bd 4aa0 8fbe 3bf6 e1bd
00000010: ef30 b3bd 9dc6 9ebe 013c f9be a218 cfbe
00000020: a56f d6be 94b9 63be 6089 a0be a956 a0be
00000030: 2eb0 5cbe 565d e0bd d644 c1be 7de8 34be
00000040: 6f3a 22bd 2988 debd 67a8 b3be 1f7a a6be
00000050: 38b6 5bbe 524d 0bbf 1b28 15be 7b9c 02be
00000060: 459b 6bbe 9926 bfbe 7a9c b8be 3b21 aabd
00000070: d46e 0dbf 2126 d1bd c7a0 19bd 55e9 8abe
00000080: dca1 99bd 8066 23bd ea0a 6ebe 675f 75be
00000090: ec7a 43be 54c7 f5be 65c0 44bf 2879 edbc
000000a0: 3ea5 f5bd 3483 4dbe 3b48 68be d4d9 c7be
000000b0: ee55 b0bb 66d5 acbe f737 b7be 7030 a53c
000000c0: a010 eebe c266 40be 5dbf 1abe 50fe c4bd
000000d0: 06db e8bd 0f1d fdbe 22cb 0dbf cc91 c6be
000000e0: 2f1d a4be 9141 42bd de22 b6bd 53b5 7bbe
000000f0: abe3 7cbe ffce c13b 1eb1 06be 11c9 a1be
00000100: 8477 8ebe 7fe0 8ebe e1aa 26be 4cb5 b3be
00000110: 605c 99be a39f 4ebe 96b4 0dbf f7c4 cdbd
00000120: 05dd 9ebe 341f 8cbe 24f1 2cbe f529 cbbe
00000130: abf0 b6bd a949 b3be 4132 d9be 1173 d1be
00000140: 920b 7abd 8e65 85be d4a0 b2be eb72 a4bd
00000150: c02f 33be 3d32 5fbe 41c4 1ebf 5d37 95bd
00000160: 1995 0ebf 8408 bfbd 8241 0a3b 21db 28be
00000170: 5ae7 82be cd24 84bd 8390 01bf af95 25be

l3.weight f4 [112, 96]
-0.063762404 -0.051884778 0.1941505 -2.269511 0.08413239 -0.13189545 -0.623163 -0.3086823
0.20077679 0.026833115 0.30931425 0.3519823 -0.8971791 -0.10059532 -0.24421154 -0.66918963
-0.3038602 0.030545918 0.04637745 -1.5725234 -0.57049656 -0.41225147 0.0004888752 0.045624554
0.2018466 -1.360308 0.706947 0.3083604 -0.9019995 -0.07143678 -0.33783627 -0.06890088
0.030775124 -0.033227257 0.07503872 0.09793765 -1.1789143 -0.7945397 -0.64271057 0.3626174
-0.1916221 -0.49761212 -0.09277693 -0.42165548 -19.342472 -0.7004484 0.014322372 -4.729833
-0.18493457 -0.5208862 -0.7785268 -0.08288488 0.16579634 -0.81644166 0.00990878 -0.42990065
-0.28084823 -0.03965202 -0.5542043 -0.39774865 -0.48679838 -2.4101086 -0.10266188 -0.09756178
-0.5968907 0.17093784 0.27526054 -0.42213404 0.14552726 -0.19404556 -0.7826957 0.083081804
-0.6452359 -0.4712759 0.24185146 -0.662592 -0.0741462 0.28821713 -0.63058424 0.19785498
0.07851992 0.07054762 0.11673645 -0.056847278 -0.1779541 -0.23181744 0.11107621 0.21275374
-0.805522 -0.06403941 -0.08316837 0.09382794 -0.9640778 0.045008846 0.09739168 -0.8549809
-0.18422455 -0.16058816 -0.07686844 -1.2971251 -0.11462563 0.118916474 -0.2537305 -0.7161167
-0.06497507 0.29260185 -0.4249035 -0.37595883 -0.15007189 0.031080108 -0.0335819 0.37985307
0.15545802 -0.003586113 -0.099733815 -1.1424236 -0.34025198 -0.7237831 -0.0744825 0.014576341
0.41392514 0.41930532 -0.41032475 0.2588205 0.34528095 -0.009963501 -1.1714412 0.27040485
0.012929365 0.051529847 0.26997602 0.34469357 -0.5447814 -0.1528311 -0.34456468 0.429886
0.12504236 -0.3712499 0.029149644 -0.39877516 -12.90919 -0.31038526 0.15926962 -6.4151387
-0.031752747 0.257385 0.12904944 -0.09136603 -0.41882086 -0.5831805 0.16936414 -0.99371725
-0.35684684 0.029273136 0.0486855 0.021749796 -0.12428489 -6.1255794 -0.05786801 0.034732863
0.25528878 0.27828482 0.21992482 0.45641065 0.19373593 0.020004373 0.027571835 0.008941925
-0.47602344 0.121825024 -0.3488512 0.18494745 0.15844043 0.020002978 -0.3034589 0.3091456
0.14209637 0.16794713 0.1877105 0.03454916 0.30719054 0.217755 -0.6139528 0.17958568
-0.24675064 0.0416212 0.16229232 0.1825212 -0.64917827 -0.0664812 0.3884902 0.3791371
0.1055908 -0.045954276 -0.6476363 -6.825604 0.03807806 0.11848121 -1.1793551 -0.01440886
0.035660088 0.3002876 -0.35588133 -1.0509714 0.014255685 -0.058197588 0.03745526 -1.1001863
-0.39193267 -0.003311352 -1.7241008 -0.4135549 -1.3663248 -0.080103666 0.0041048327 0.07134029
-1.2079924 -0.025442462 -0.58790106 -0.65417427 0.2212048 -0.005448763 -0.115429096 -0.35235643
-1.4283915 0.027362846 -0.010934025 -1.1213801 -1.3318101 -0.042420182 -0.31598276 -0.42413843
-0.8341488 0.11277113 -1.0776781 -0.36136186 -6.906016 0.48020935 0.099058464 -6.743874
0.16966519 -0.0053037363 -0.45637906 0.05812588 -0.84996516 0.07617618 0.64216447 0.12322533
0.25189087 -0.1183156 -1.1889964 -0.37123257 -1.1626204 -3.030168 -0.0937296 -0.6596191
00000000: dd95 82bd 2285 54bd 64cf 463e ab3f 11c0
00000010: 9a4d ac3d 9a0f 07be 9c87 1fbf 9b0b 9ebe
00000020: 6e98 4d3e 1fd1 db3c 705e 9e3e 0637 b43e
00000030: 88ad 65bf eb04 cebd 9712 7abe 0350 2bbf
00000040: 9093 9bbe 6f3b fa3c 48f6 3d3d 7248 c9bf
00000050: 100c 12bf a012 d3be dc27 003a d0e0 3a3d
00000060: e0b0 4e3e 931e aebf 7bfa 343f 6ae1 9d3e
00000070: 70e9 66bf 724d 92bd e0f8 acbe e81b 8dbd
00000080: 1d1c fc3c 4e19 08bd e7ad 993d 8993 c83d
00000090: aae6 96bf f466 4bbf ae88 24bf fda8 b93e
000000a0: 9538 44be 04c7 febe d501 bebd 3ae3 d7be
000000b0: 62bd 9ac1 9650 33bf 62a8 6a3c cb5a 97c0
000000c0: 7d5f 3dbe cc58 05bf 884d 47bf 8cbf a9bd
000000d0: 84c6 293e 5202 51bf 7058 223c f01b dcbe
000000e0: 57cb 8fbe 286a 22bd 55e0 0dbf b6a5 cbbe
000000f0: a33d f9be 383f 1ac0 6440 d2bd 78ce c7bd
00000100: d4cd 18bf 540a 2f3e f3ee 8c3e f421 d8be
00000110: 1905 153e e1b3 46be bf5e 48bf cb26 aa3d
00000120: 2e2e 25bf 134b f1be e9a7 773e a19f 29bf
00000130: f7d9 97bd 3291 933e f86d 21bf 7f9a 4a3e
00000140: 0dcf a03d 457b 903d 8513 ef3d b1d8 68bd
00000150: 9939 36be 8d61 6dbe ed7b e33d 1edc 593e
00000160: b136 4ebf 1827 83bd 2e54 aabd dd28 c03d
00000170: cdcd 76bf 325b 383d 4a75 c73d 07e0 5abf
00000180: 5ca5 3cbe 3971 24be 336d 9dbd 3208 a6bf
00000190: d8c0 eabd 7b8a f33d f7e8 81be 6d53 37bf
000001a0: a611 85bd e9cf 953e f48c d9be ad7d c0be
000001b0: 72ac 19be b69b fe3c 2d8d 09bd 1a7c c23e
000001c0: 6330 1f3e fe04 6bbb 3e41 ccbd f03a 92bf
000001d0: 8235 aebe d949 39bf 488a 98bd 9bd1 6e3c
000001e0: ffed d33e 30af d63e 1616 d2be 1f84 843e
000001f0: aac8 b03e f43d 23bc c9f1 95bf 8172 8a3e
00000200: b0d5 533c f610 533d 4c3a 8a3e ad7b b03e
00000210: cb76 0bbf c27f 1cbe c86a b0be 051a dc3e
00000220: 1b0b 003e 7814 bebe 3ccb ee3c 422c ccbe
00000230: 0b8c 4ec1 d1ea 9ebe 9317 233e d148 cdc0
00000240: 2b0f 02bd f7c7 833e 8925 043e 1d1e bbbd
00000250: b06f d6be 514b 15bf cb6d 2d3e 4164 7ebf
00000260: a1b4 b6be 37ce ef3c 726a 473d a12c b23c
00000270: 1489 febd bf04 c4c0 0207 6dbd 0c44 0e3d
00000280: 36b5 823e 597b 8e3e f933 613e a8ae e93e
00000290: b662 463e 36e0 a33c 54de e13c 2781 123c
000002a0: 58b9 f3be 667f f93d a09c b2be dd62 3d3e
000002b0: 353e 223e 49dd a33c f75e 9bbe 5548 9e3e
000002c0: b681 113e 55fa 2b3e 2e37 403e 6c83 0d3d
000002d0: 1448 9d3e 2bfb 5e3e 032c 1dbf 4fe5 373e
000002e0: 33ac 7cbe fe7a 2a3d f52f 263e d6e6 3a3e
000002f0: 8c30 26bf 4c27 88bd 30e8 c63e 421e c23e
00000300: fd3f d83d 8d3a 3cbd 7ecb 25bf 596b dac0
00000310: bdf7 1b3d 47a6 f23d 1cf5 96bf 2413 6cbc
00000320: 5010 123d 4cbf 993e 1436 b6be 3b86 86bf
00000330: ad90 693c 9860 6ebd b06a 193d e8d2 8cbf
00000340: 66ab c8be 4503 59bb 56af dcbf 78bd d3be
00000350: bbe3 aebf 640d a4bd d581 863b dc1a 923d
00000360: 7f9f 9abf b66c d0bc af80 16bf f777 27bf
00000370: 8383 623e 898b b2bb 1766 ecbd 1068 b4be
00000380: 88d5 b6bf 0c28 e03c a024 33bc 6289 8fbf
00000390: c178 aabf c9c0 2dbd 7ec8 a1be ac28 d9be
000003a0: c78a 55bf 8df4 e63d 5bf1 89bf 6c04 b9be
000003b0: 15fe dcc0 00de f53e 2adf ca3d d1cd d7c0
000003c0: b6bc 2d3e f7ca adbb 84aa e9be 6715 6e3d
000003d0: 5197 59bf 4202 9c3d e464 243f 905d fc3d
000003e0: d7f7 803e 734f f2bd 0931 98bf 3212 bebe
000003f0: bfd0 94bf 46ee 41c0 4ef5 bfbd ccdc 28bf

l3.bias f4 [112]
-14.967963 -15.827319 -15.853043 -12.567043 -15.138012 -15.577011 -13.277492 -15.863585
-15.622254 -13.065752 -16.658016 -14.927804 -16.34982 -16.15857 -15.531598 -15.224804
-15.556967 -15.9886675 -15.264311 -15.16342 -16.467428 -16.401993 -15.2611265 -16.197987
-13.782599 0.74038523 -15.511939 -16.575972 -15.080029 -0.8498074 -16.11984 -16.519485
-16.579826 -16.457832 -15.647598 -16.120611 0.7422648 -16.63668 -15.978735 -16.49507
-16.324747 -14.004344 -16.024494 -16.127321 -16.384182 -15.736536 -16.112549 -16.761374
-16.768597 -16.38647 -16.262865 -16.087791 -15.530579 -16.157434 -16.211567 -15.358698
-15.904821 -14.206351 -15.648217 -16.06535 -12.618838 -16.300201 -15.706222 -16.705828
-15.518192 -16.697645 -16.344212 -15.403768 -16.249903 -16.750362 -16.39401 -16.839443
-16.37267 -14.4274 -15.652141 -15.078935 -16.211292 -16.048496 -16.051521 -16.343073
-16.275558 -15.980581 -15.646988 -15.444421 -14.943684 -16.185865 -15.744851 -15.430633
-16.615728 -16.233292 -13.55489 -16.187815 -12.526093 -16.302277 -15.130401 -15.542085
-14.206934 -0.84691423 -16.068386 -14.819998 -15.885684 -15.756264 -16.247852 -15.99514
-15.623956 -16.212404 -14.167491 -16.533669 -16.439959 -15.101746 -15.069243 -16.371584
00000000: c77c 6fc1 b33c 7dc1 10a6 7dc1 9c12 49c1
00000010: 4c35 72c1 703b 79c1 9b70 54c1 3fd1 7dc1
00000020: c1f4 79c1 520d 51c1 9e43 85c1 49d8 6ec1
00000030: 6ecc 82c1 c044 81c1 6d81 78c1 cc98 73c1
00000040: 56e9 78c1 95d1 7fc1 9e3a 74c1 5e9d 72c1
00000050: 4bbd 83c1 4837 83c1 932d 74c1 7a95 81c1
00000060: 8785 5cc1 e389 3d3f e730 78c1 979b 84c1
00000070: cc47 71c1 fa8c 59bf 6ff5 80c1 e827 84c1
00000080: 7ca3 84c1 a4a9 83c1 905c 7ac1 03f7 80c1
00000090: 1105 3e3f ec17 85c1 e6a8 7fc1 e7f5 83c1
000000a0: 1599 82c1 cb11 60c1 2a32 80c1 c104 81c1
000000b0: ce12 83c1 dac8 7bc1 80e6 80c1 4b17 86c1
000000c0: 1626 86c1 7e17 83c1 591a 82c1 ccb3 80c1
000000d0: 407d 78c1 6d42 81c1 4ab1 81c1 3abd 75c1
000000e0: 267a 7ec1 374d 63c1 195f 7ac1 d685 80c1
000000f0: c3e6 49c1 d066 82c1 af4c 7bc1 89a5 85c1
00000100: 844a 78c1 c794 85c1 f2c0 82c1 d575 76c1
00000110: cdff 81c1 be00 86c1 ef26 83c1 2eb7 86c1
00000120: 3afb 82c1 a1d6 66c1 2b6f 7ac1 5143 71c1
00000130: bab0 81c1 5263 80c1 8469 80c1 9dbe 82c1
00000140: 5834 82c1 76b0 7fc1 105a 7ac1 591c 77c1
00000150: 5419 6fc1 a77c 81c1 e9ea 7bc1 dfe3 76c1
00000160: 03ed 84c1 c8dd 81c1 d4e0 58c1 a580 81c1
00000170: e06a 48c1 106b 82c1 1f16 72c1 61ac 78c1
00000180: 9a4f 63c1 5fcf 58bf 0e8c 80c1 b61e 6dc1
00000190: c32b 7ec1 a819 7cc1 9afb 81c1 18ec 7fc1
000001a0: b9fb 79c1 01b3 81c1 0bae 62c1 f444 84c1
000001b0: 0985 83c1 c0a0 71c1 9f1b 71c1 01f9 82c1
